LAB3/Entrega/age/nn_model.pth (torch, 100878 bytes, 19 tensors)

weight f4 [128, 88]
-0.045101725 0.002061992 -0.030125838 -0.017083924 -0.042467657 0.016731681 -0.03038283 -0.00034441924
0.002662249 -0.0030543453 0.010572289 0.02081004 0.02553139 0.025171608 -0.029942352 0.00010220983
-0.010726627 0.027923394 -0.019690609 0.009164656 -0.0077631655 0.003920174 -0.024915194 0.012660021
0.036231425 0.01997267 -0.020375833 0.0022972932 0.031027876 -0.024432603 -0.006142549 -0.01825519
0.000665701 -0.0021366926 -0.0079447515 0.014069432 0.029789338 -0.0026948703 0.02623878 -0.024426907
-0.0034443724 -0.023850359 0.009190242 0.015460237 -0.007604573 0.012526721 -0.010907945 -0.020581014
0.029837495 0.011772163 0.023362182 0.025397256 0.012216611 0.028951354 0.043452006 -0.003872121
-0.025721457 -0.024500929 0.013672956 0.0037243534 -0.012592914 0.024299217 0.020819155 -0.0106030805
-0.016203385 -0.011612345 0.008941522 -0.0022575685 -0.018958028 -0.012430935 -0.015464218 -0.008941423
-0.033414327 0.030011408 0.029179625 -0.019057726 -0.025429666 0.0044437065 0.038746417 -0.029692607
-0.026157565 0.03420912 -0.014804322 -0.018645674 -0.022214567 0.02008331 0.001467371 -0.040320612
-0.02075887 0.015396202 -0.0013887212 0.0062286863 -0.033337448 -0.019229202 0.018123534 -0.005986164
-0.0041111857 0.0076232566 0.020103747 0.014771631 -0.00020577926 0.0029597871 0.0059859543 0.0016585577
0.022679843 0.018602613 0.005961837 -0.019432612 -0.048002444 -0.039379366 -0.018329151 -0.017429035
-0.026809769 -0.0058593974 0.026712473 0.025787711 0.01815771 -0.0042961324 0.017154109 0.00063965545
-0.02852841 0.037880447 0.03975496 -0.03469684 0.0100160055 0.011783262 -0.061619893 -0.02959414
0.032945607 -0.006721342 0.014912055 -0.014084585 0.010056004 -0.022079717 -0.008749278 0.02814773
-0.004802215 -0.0076474193 0.0073462105 0.028909344 -0.046651244 0.016879378 -0.012781733 0.0061529363
0.021063864 -0.030653909 0.00881757 0.035050537 0.0077873133 -0.006250592 0.018497955 0.033032436
0.014509436 0.022288265 -0.033942923 -0.0025436778 -0.0021400119 0.0069517363 0.034551654 0.01486422
0.024095898 0.010235482 0.037364233 -0.011366018 -0.047059506 -0.021360831 -0.043372586 -0.021883637
0.0017717041 0.018444195 -0.011061378 -0.02277607 0.013963432 0.033876408 0.028493522 0.03718025
-0.013973727 -0.0034249811 -0.031448223 0.01490115 -0.030212434 0.04637414 -0.010406959 0.013016255
0.00055119005 0.005057103 -0.0014074243 -0.004303714 0.043822486 0.00045066737 0.01844098 -0.020331899
0.022598874 0.003618515 0.004426581 0.0114309015 -0.017023077 0.00093267823 -0.044316165 0.025563622
-0.025412373 0.011392129 -0.018041924 0.0150913205 0.036868725 0.0136764925 0.0043417783 0.014645875
-0.0148441885 0.012720369 0.006038993 0.006578118 0.019011676 0.018547583 -0.07580829 -0.015786935
0.00415219 0.005929071 0.013451973 -0.009648374 0.011660122 -0.025471523 0.01724565 0.006192159
-0.0055526197 0.011998576 0.024141237 0.04267111 -0.01944822 -0.029476184 0.012235747 -0.0076200343
-0.014009464 0.019548161 0.04564388 -0.027298944 0.0010650645 -0.0032323834 0.061059043 -0.01729578
-0.02569546 -0.008330679 -0.04461763 -0.007902063 0.012471968 -0.012601575 0.023866054 0.0007524026
0.036467608 -0.027668318 0.05007834 -0.022253124 -0.00928131 0.04370033 -0.043185923 0.017899243
00000000: 96bc 38bd 7c22 073b 76ca f6bc 96f3 8bbc
00000010: 91f2 2dbd e110 893c 6ae5 f8bc 2b93 b4b9
00000020: 2079 2e3b 692b 48bb 6537 2d3c d179 aa3c
00000030: 3527 d13c b034 ce3c aa49 f5bc 7c59 d638
00000040: bcbe 2fbc 9abf e43c 334e a1bc 5a27 163c
00000050: 2762 febb ce74 803b f31a ccbc fa6b 4f3c
00000060: 6767 143d ba9d a33c 38eb a6bc 2f8e 163b
00000070: 2c2e fe3c e226 c8bc 7047 c9bb e98b 95bc
00000080: 7082 2e3a c107 0cbb b42a 02bc 7a83 663c
00000090: c508 f43c 6c9c 30bb b6f2 d63c f01a c8bc
000000a0: fbba 61bb d461 c3bc ab92 163c ef4c 7d3c
000000b0: c82f f9bb e03c 4d3c 3db7 32bc 8499 a8bc
000000c0: c36d f43c 08e0 403c 0c62 bf3c e80d d03c
000000d0: 2e28 483c 642b ed3c bbfa 313d 69c3 7dbb
000000e0: ceb5 d2bc 2cb6 c8bc 8904 603c 4814 743b
000000f0: 8252 4ebc 270f c73c ef8c aa3c 8bb8 2dbc
00000100: f6bc 84bc b541 3ebc 767f 123c b7f3 13bb
00000110: de4d 9bbc 1fab 4bbc a25d 7dbc 0c7f 12bc
00000120: 76dd 08bd 7cda f53c 1c0a ef3c f31e 9cbc
00000130: e051 d0bc 839c 913b 90b4 1e3d e93d f3bc
00000140: 6448 d6bc dd1e 0c3d d48d 72bc d0be 98bc
00000150: 53fb b5bc c185 a43c cd54 c03a 3a27 25bd
00000160: 810e aabc 5a40 7c3c c005 b6ba 021a cc3b
00000170: d98c 08bd 8f86 9dbc ce77 943c 9527 c4bb
00000180: 20b7 86bb 83cc f93b 9db0 a43c b604 723c
00000190: 73c6 57b9 fdf8 413b d325 c43b f663 d93a
000001a0: 14cb b93c 8264 983c 835b c33b 2431 9fbc
000001b0: 369e 44bd 424c 21bd 0427 96bc 56c7 8ebc
000001c0: 29a0 dbbc 3000 c0bb 1ed4 da3c c040 d33c
000001d0: 7abf 943c 92c6 8cbb c686 8c3c 8dae 273a
000001e0: 69b4 e9bc 8728 1b3d 19d6 223d 461e 0ebd
000001f0: 2c1a 243c 950e 413c 2465 7cbd 696f f2bc
00000200: f9f1 063d b43e dcbb b151 743c 08c3 66bc
00000210: f0c1 243c 86e0 b4bc 2259 0fbc 1196 e63c
00000220: e65b 9dbb 3497 fabb 7bb8 f03b 4ad3 ec3c
00000230: 6015 3fbd 9f46 8a3c 796a 51bc 929e c93b
00000240: 208e ac3c e81d fbbc 9277 103c 2791 0f3d
00000250: b82c ff3b c4d1 ccbb 0689 973c 054d 073d
00000260: fcb8 6d3c e195 b63c bc07 0bbd d5b3 26bb
00000270: 713f 0cbb 64cb e33b 0986 0d3d 0f89 733c
00000280: c364 c53c b9b2 273c 3d0b 193d 8938 3abc
00000290: 78c1 40bd e9fc aebc 74a7 31bd 5045 b3bc
000002a0: 8638 e83a 4818 973c c83a 35bc e194 babc
000002b0: e1c6 643c fdc1 0a3d 3f6b e93c 514a 183d
000002c0: 0ff2 64bc a675 60bb dacf 00bd f423 743c
000002d0: 1180 f7bc cff2 3d3d f381 2abc 2142 553c
000002e0: bd7d 103a 0eb6 a53b 5379 b8ba 2b06 8dbb
000002f0: 357f 333d 8d47 ec39 8a11 973c 158f a6bc
00000300: 4621 b93c 9c24 6d3b da0c 913b ad48 3b3c
00000310: fb73 8bbc fa7e 743a de84 35bd cd6a d13c
00000320: 9c2d d0bc 0da6 3a3c a8cc 93bc 9641 773c
00000330: a903 173d 5e13 603c 7a45 8e3b 41f5 6f3c
00000340: 0a35 73bc 1869 503c bfe2 c53b 418d d73b
00000350: 60be 9b3c 1af1 973c 6041 9bbd 9a53 81bc
00000360: 180f 883b a748 c23b aa65 5c3c 3714 1ebc
00000370: 190a 3f3c a8a9 d0bc c046 8d3c 98e7 ca3b
00000380: c0f2 b5bb ad95 443c d8c3 c53c e7c7 2e3d
00000390: e051 9fbc 0a78 f1bc 7178 483c 7bb1 f9bb
000003a0: f387 65bc 7723 a03c 14f5 3a3d 09a2 dfbc
000003b0: a299 8b3a 65d6 53bb 0c19 7a3d e1af 8dbc
000003c0: 497f d2bc 667d 08bc fac0 36bd a877 01bc
000003d0: 3a57 4c3c d676 4ebc be82 c33c e23c 453a
000003e0: 0f5f 153d aba8 e2bc f21e 4d3d 2f4c b6bc
000003f0: a310 18bc 1eff 323d b9e3 30bd 6fa1 923c

bias f4 [128]
-0.007080594 0.006047304 0.026762921 0.0044137575 0.032650284 -0.030737145 -0.0012563652 -0.0045364024
0.027742025 0.028577788 0.030497503 0.02861348 0.022930091 0.01770033 -0.008978061 0.036231212
0.025135515 0.03522696 0.018545832 -0.011665188 -0.0048927027 -0.021192083 -0.0023723578 -0.034582764
-0.020250557 -0.016320316 -0.024768919 0.032898504 0.016837 -0.028508304 0.009308761 -0.008719529
0.021949092 0.025673114 0.034442976 -0.03363697 -0.0373357 -0.024071356 -0.008633998 0.0077953474
0.020678695 -0.01650268 -0.022062548 0.014786623 0.0026162523 -0.0056878612 -0.03362566 0.022129305
0.019436529 0.023452993 -0.020329544 -0.026244514 0.0030778986 -0.0010154658 0.029304093 0.01711231
-0.036190327 0.026251974 0.022999108 -0.017114017 -0.0038646534 -0.028819356 0.010271996 -0.037596464
0.010258138 -0.02697509 -0.024776245 0.029254166 -0.036672153 -0.01673279 0.024893224 0.030993814
-0.005038484 -0.026175553 0.03235985 -0.01604561 -0.0020595852 0.020572813 0.014454426 0.007007641
0.013905476 -0.012440827 0.029827634 -0.0033664056 -0.030835792 0.0017145391 -0.009469267 -0.035979606
-0.030588085 -0.008274191 0.014588375 -0.010501301 0.031419907 0.005265071 0.010965134 0.035373695
-0.012995538 -0.021403601 -0.017926201 -0.0069734184 -0.03711652 0.016334614 0.0044497754 0.03571949
0.027517352 0.0054092477 0.0047330363 0.012399184 0.0017825271 0.019276842 -0.028495593 -0.025735233
0.0045299553 0.010231734 -0.018386427 -0.023195134 -0.031322524 0.0002600263 0.03772174 -0.032122005
0.017303526 0.011713492 -0.003274896 0.010992636 0.027840158 -0.009801259 0.034887888 -0.03609086
00000000: 5404 e8bb 7628 c63b ea3d db3c 48a1 903b
00000010: 4ebc 053d 77cc fbbc 9fac a4ba 1aa6 94bb
00000020: 3e43 e33c f71b ea3c e6d5 f93c d166 ea3c
00000030: e3d7 bb3c 4800 913c b818 13bc 2e67 143d
00000040: ffe8 cd3c 254a 103d 6eed 973c 581f 3fbc
00000050: f752 a0bb 059b adbc 8f79 1bbb a8a6 0dbd
00000060: 7fe4 a5bc 2fb2 85bc 30e8 cabc 95c0 063d
00000070: c0ed 893c 3f8a e9bc c683 183c 5bdc 0ebc
00000080: 95ce b33c 6c50 d23c 1414 0d3d ebc6 09bd
00000090: 52ed 18bd 4b31 c5bc 9d75 0dbc 1d70 ff3b
000000a0: 5e66 a93c a130 87bc 84bc b4bc 9843 723c
000000b0: 6e75 2b3b 3d61 babb 0fbb 09bd 8448 b53c
000000c0: 5b39 9f3c 7e20 c03c 258a a6bc bcfe d6bc
000000d0: 92b6 493b 6119 85ba 230f f03c 1d2f 8c3c
000000e0: 4f3c 14bd 610e d73c a068 bc3c b232 8cbc
000000f0: 2046 7dbb 9216 ecbc e04b 283c c0fe 19bd
00000100: c011 283c ddfa dcbc 8df7 cabc 6fa6 ef3c
00000110: 8a35 16bd 3413 89bc e0ec cb3c bde6 fd3c
00000120: de19 a5bb 1d6e d6bc c38b 043d 1572 83bc
00000130: 1bfa 06bb 5188 a83c 42d2 6c3c 5aa0 e53b
00000140: cbd3 633c 9cd4 4bbc 1559 f43c ea9e 5cbb
00000150: 589b fcbc 63ba e03a fc24 1bbc 5a5f 13bd
00000160: dd93 fabc 7990 07bc 1404 6f3c a60d 2cbc
00000170: 29b2 003d 9e86 ac3b 1ba7 333c 02e4 103d
00000180: 3deb 54bc 9b56 afbc f8d9 92bc 4681 e4bb
00000190: 7e07 18bd 2bd0 853c 6ccf 913b 9a4e 123d
000001a0: 126c e13c 0f40 b13b 9617 9b3b f225 4b3c
000001b0: afa3 e93a 78ea 9d3c 976f e9bc b2d2 d2bc
000001c0: 0570 943b 01a3 273c 229f 96bc b903 bebc
000001d0: 0c4c 00bd 2454 8839 1c82 1a3d 5d92 03bd
000001e0: 20c0 8d3c f2e9 3f3c a39f 56bb 751a 343c
000001f0: 0b11 e43c 7695 20bc 9ae6 0e3d 02d4 13bd

weight f4 [128]
0.35691988 0.35788634 0.36483306 0.36505824 0.3574646 0.35947403 0.35366717 0.3653134
0.368932 0.36122105 0.35944423 0.36672696 0.3529259 0.35925287 0.36408758 0.36058757
0.35190916 0.36003596 0.3629065 0.3524187 0.36086679 0.3653335 0.35744214 0.36347213
0.3551775 0.35573652 0.35379773 0.36188564 0.36477926 0.35603482 0.3650752 0.3552595
0.35907438 0.36122632 0.3712411 0.35938686 0.36206418 0.3676365 0.3644701 0.35415468
0.36594263 0.35445306 0.3631326 0.35741445 0.36807168 0.3610349 0.36527848 0.35803422
0.35395673 0.3612203 0.36045086 0.35581732 0.3576534 0.3705436 0.36316156 0.3558523
0.35874686 0.36236545 0.3636621 0.35845828 0.36326286 0.36649153 0.36212543 0.35420662
0.35277334 0.3606361 0.36198434 0.35622826 0.35875833 0.35623774 0.36274648 0.37512535
0.34969386 0.3611952 0.35899156 0.3586228 0.3588902 0.35888135 0.36069325 0.35124415
0.36017826 0.357163 0.35882884 0.36007184 0.3560822 0.35766754 0.35862687 0.35878852
0.353531 0.36432058 0.35346073 0.36850044 0.36272702 0.3695954 0.36091778 0.35802656
0.3630605 0.36072752 0.35596007 0.35157722 0.35707965 0.3680095 0.36213607 0.35453522
0.37131888 0.35367626 0.36783576 0.35834363 0.35847935 0.35847074 0.35925034 0.3556069
0.35899255 0.35181174 0.35510403 0.369191 0.35677487 0.35973287 0.35578918 0.36092854
0.3616139 0.36158368 0.35022068 0.3605712 0.3619399 0.3610445 0.36651456 0.35782468
00000000: 34be b63e e13c b73e 66cb ba3e eae8 ba3e
00000010: 9a05 b73e fb0c b83e dd13 b53e 5c0a bb3e
00000020: a8e4 bc3e f7f1 b83e 1309 b83e a3c3 bb3e
00000030: b4b2 b43e feef b73e b069 ba3e ef9e b83e
00000040: 702d b43e a256 b83e e1ce b93e 3970 b43e
00000050: 88c3 b83e fe0c bb3e a802 b73e 0519 ba3e
00000060: d3d9 b53e 1923 b63e fa24 b53e 1349 b93e
00000070: 59c4 ba3e 324a b63e 23eb ba3e 93e4 b53e
00000080: 99d8 b73e a8f2 b83e 5013 be3e 8e01 b83e
00000090: 7a60 b93e da3a bc3e d39b ba3e c353 b53e
000000a0: d55c bb3e df7a b53e 84ec b93e 07ff b63e
000000b0: e473 bc3e 91d9 b83e c805 bb3e 4350 b73e
000000c0: d139 b53e def1 b83e 048d b83e b02d b63e
000000d0: 591e b73e e4b7 bd3e 50f0 b93e 4632 b63e
000000e0: abad b73e f787 b93e eb31 ba3e d887 b73e
000000f0: 97fd b93e c7a4 bb3e 8168 b93e 925a b53e
00000100: b59e b43e 4ba5 b83e 0356 b93e 8d63 b63e
00000110: 2caf b73e cb64 b63e e8b9 b93e 6e10 c03e
00000120: 130b b33e 94ee b83e becd b73e 689d b73e
00000130: 75c0 b73e 4cbf b73e c9ac b83e 46d6 b33e
00000140: 4969 b83e 12de b63e 6ab8 b73e 565b b83e
00000150: 6850 b63e 3320 b73e f19d b73e 21b3 b73e
00000160: 0402 b53e 3a88 ba3e cef8 b43e 17ac bc3e
00000170: 5bb7 b93e 9c3b bd3e 37ca b83e 424f b73e
00000180: 11e3 b93e 47b1 b83e 6640 b63e ee01 b43e
00000190: 25d3 b63e be6b bc3e e669 b93e a485 b53e
000001a0: 821d be3e 0e15 b53e f854 bc3e d178 b73e
000001b0: 9b8a b73e 7a89 b73e a9ef b73e 1c12 b63e
000001c0: dfcd b73e ab20 b43e 32d0 b53e 9a06 bd3e
000001d0: 32ab b63e e82e b83e 002a b63e a0cb b83e
000001e0: 7525 b93e 7f21 b93e 2050 b33e ca9c b83e
000001f0: 3050 b93e d3da b83e cca7 bb3e cc34 b73e

bias f4 [128]
-0.006645257 -0.008303763 -0.021288823 -0.011841452 -0.009038211 -0.0042939554 -0.017003128 -0.07831985
-0.012131567 -0.0049881567 -0.013208986 -0.0122983735 -0.007233938 -0.007315118 -0.009370167 -0.02861019
-0.011831601 -0.013433586 -0.0048265536 -0.014115105 -0.031658553 -0.047093168 -0.011341416 -0.049536794
-0.0034948932 -0.011750308 -0.027842693 -0.0010554325 -0.0033294233 -0.013584877 -0.0022670266 -0.008604944
-0.006751745 -0.011336996 -0.00709037 -0.018611077 -0.036299895 -0.012673462 -0.0006264286 -0.017074345
-0.022510348 -0.0066422774 -0.0182243 -0.0051288274 0.0031887288 -0.019140368 -0.021383597 -0.011281273
-0.016730534 -0.010549445 -0.043847274 -0.0036384955 -0.024429796 -0.011924706 -0.011103 -0.04023857
-0.015325475 -0.013570541 -0.012657649 -0.016944002 -0.045635134 -0.017981129 -0.0038136723 -0.019986784
-0.008241052 -0.0043737055 -0.0111663 -0.013759026 -0.0023569788 -0.015839422 -0.015353872 -0.018190151
-0.0107459 -0.017544098 -0.007032729 -0.009518136 -0.036493152 -0.015888 -0.015359519 -0.013329057
-0.01905027 -0.0032444736 -0.0073192175 -0.020538751 -0.0060473834 -0.020912208 -0.018892385 -0.029192919
-0.011342462 0.00095429935 -0.015770288 -0.006768925 -0.009057843 -0.009440103 -0.005562199 -0.014587279
-0.0025332845 -0.049252536 -0.010640761 -0.017147869 -0.023458652 -0.008053843 0.001431672 -0.008307247
-0.0141063435 -0.017314458 -0.02799463 0.0018982355 -0.029632002 -0.01156705 -0.011154626 -0.0046072146
-0.020090751 -0.015393136 -0.0066936687 -0.003601061 -0.02564851 -0.011270669 -0.060466535 -0.013027291
-0.010305561 -0.004671982 -0.014320962 -0.018544845 -0.04161155 -0.016174952 -0.009858872 -0.02047583
00000000: 75c0 d9bb 820c 08bc e665 aebc a602 42bc
00000010: 0115 14bc 4fb4 8cbb 254a 8bbc 2866 a0bd
00000020: 7bc3 46bc b173 a3bb 816a 58bc 1e7f 49bc
00000030: ac0a edbb a8b3 efbb 5485 19bc eb5f eabc
00000040: 55d9 41bc 8b18 5cbc 1128 9ebb 0b43 67bc
00000050: 66ac 01bd c4e4 40bd 59d1 39bc 18e7 4abd
00000060: 940a 65bb 5d84 40bc 5c16 e4bc 7056 8aba
00000070: 7432 5abb 1b93 5ebc 6592 14bb c0fb 0cbc
00000080: be3d ddbb cfbe 39bc 5656 e8bb 4276 98bc
00000090: 33af 14bd 5aa4 4fbc e936 24ba 7fdf 8bbc
000000a0: 9f67 b8bc 76a7 d9bb 214b 95bc b90f a8bb
000000b0: fef9 503b 43cc 9cbc a72c afbc 17d5 38bc
000000c0: 790e 89bc 94d7 2cbc 3399 33bd d373 6ebb
000000d0: ff20 c8bc d85f 43bc 5be9 35bc 33d1 24bd
000000e0: b317 7bbc f956 5ebc 0762 4fbc 26ce 8abc
000000f0: e8eb 3abd 294d 93bc ceee 79bb 53bb a3bc
00000100: 7a05 07bc 4d51 8fbb dbf2 36bc 8a6d 61bc
00000110: 8b77 1abb adc1 81bc cf8e 7bbc 8303 95bc
00000120: 920f 30bc a4b8 8fbc cf72 e6bb f5f1 1bbc
00000130: d879 15bd 8d27 82bc 7ea6 7bbc 1e62 5abc
00000140: 500f 9cbc 3ca1 54bb 0cd6 efbb e240 a8bc
00000150: 2129 c6bb 1450 abbc 34c4 9abc fd25 efbc
00000160: bcd5 39bc f229 7a3a b130 81bc dccd ddbb
00000170: 5967 14bc a9aa 1abc 1b43 b6bb 7cff 6ebc
00000180: 7605 26bb 07bd 49bd 9656 2ebc b079 8cbc
00000190: 5c2c c0bc 44f4 03bc f1a6 bb3a 1f1b 08bc
000001a0: 4b1e 67bc 0dd7 8dbc ff54 e5bc 37ce f83a
000001b0: d0be f2bc b983 3dbc e4c1 36bc 1ef8 96bb
000001c0: 5c95 a4bc 7e33 7cbc 9056 dbbb c7ff 6bbb
000001d0: d31c d2bc 9da8 38bc c2ab 77bd 6b70 55bc
000001e0: a8d8 28bc 6d17 99bb 78a2 6abc 5ceb 97bc
000001f0: df70 2abd 5581 84bc 1b87 21bc eebc a7bc

running_mean f4 [128]
-0.011426067 0.007502714 0.029134568 0.0063977903 0.030749628 -0.022920797 -0.011636614 0.0025285045
0.030291172 0.027897002 0.026565775 0.035297185 0.029829413 0.02478274 -0.009687272 0.031182405
0.026583446 0.030635854 0.014521094 -0.012914767 -0.0015832218 -0.020965757 -0.0038384777 -0.030295344
-0.024230478 -0.017851131 -0.026623046 0.035352804 0.020877074 -0.023099186 0.022267016 -0.014683546
0.015730403 0.02753398 0.029986806 -0.034900475 -0.025807882 -0.020488998 -0.0015167829 -0.016443219
0.022128321 -0.0151730245 -0.018612318 0.0044412557 -0.0012889901 -0.00096878246 -0.01996438 0.024060316
0.015818318 0.020048227 -0.015423083 -0.031008093 0.009784033 0.009700177 0.022306044 0.017067766
-0.036538225 0.023480967 0.013526717 -0.017155979 0.0037660892 -0.027462982 0.014857489 -0.041942064
0.010626051 -0.026695298 -0.029852811 0.031232897 -0.03351544 -0.016574562 0.02842722 0.03376403
0.010193041 -0.0062183794 0.032017034 -0.022437565 0.003987662 0.011643778 0.013549667 -0.00031530662
0.0017192772 -0.016112946 0.02173782 0.007149308 -0.029687934 0.011121446 -0.02320175 -0.039352383
-0.033872362 0.00028756206 0.008356861 -0.0077909594 0.032389335 -0.002686591 0.016013155 0.03830524
-0.011289614 -0.020364309 -0.01668929 0.008122433 -0.0486244 0.015172231 0.010380827 0.037145387
0.041031703 0.009656239 -0.0005611677 0.014764707 0.0038634867 0.026676632 -0.03449685 -0.03191421
0.006474331 0.0056495853 -0.023570843 -0.020026747 -0.037664898 0.00017656654 0.044909563 -0.02785138
0.0096674785 0.00088385557 -0.0067339265 0.01581041 0.030391866 -0.012497289 0.033304293 -0.040045965
00000000: 6634 3bbc 54d9 f53b 9eab ee3c 8ea4 d13b
00000010: a5e6 fb3c 65c4 bbbc 7fa7 3ebc 44b5 253b
00000020: 3125 f83c 4188 e43c 78a0 d93c c893 103d
00000030: d05c f43c 2c05 cb3c 5db7 1ebc 3e72 ff3c
00000040: 87c5 d93c 0bf8 fa3c e2e9 6d3c 7598 53bc
00000050: 1c84 cfba 61c0 abbc f88e 7bbb f12d f8bc
00000060: ff7e c6bc 893c 92bc 9318 dabc 1ace 103d
00000070: 6606 ab3c 813a bdbc 5169 b63c 4193 70bc
00000080: 0cdd 803c f18e e13c e4a6 f53c cdf3 0ebd
00000090: 0d6b d3bc 8bd8 a7bc cace c6ba eeb3 86bc
000000a0: 7446 b53c 4798 78bc dc78 98bc f487 913b
000000b0: 55f3 a8ba e4f5 7dba 578c a3bc 241a c53c
000000c0: 6b95 813c 2e3c a43c 19b1 7cbc af04 febc
000000d0: 354d 203c 7eed 1e3c 2abb b63c b3d1 8b3c
000000e0: 1ba9 15bd 285b c03c 2a9f 5d3c b28a 8cbc
000000f0: 7ed0 763b 0cfa e0bc d36c 733c 71cb 2bbd
00000100: e318 2e3c 19b0 dabc e28d f4bc 22dc ff3c
00000110: 7c47 09bd 60c7 87bc 34e0 e83c 274c 0a3d
00000120: b600 273c 8cc3 cbbb 4b24 033d fcce b7bc
00000130: efaa 823b 8bc5 3e3c 6cff 5d3c bd4f a5b9
00000140: 5f59 e13a 4cff 83bc 8313 b23c be44 ea3b
00000150: 1c34 f3bc ba36 363c 9911 bebc f72f 21bd
00000160: bfbd 0abd edc3 9639 37eb 083c 4e4b ffbb
00000170: aeaa 043d 8411 30bb 052e 833c f5e5 1c3d
00000180: 13f8 38bc 0dd3 a6bc fab7 88bc f413 053c
00000190: 612a 47bd f394 783c 5814 2a3c c325 183d
000001a0: dc10 283d 3435 1e3c 541b 13ba abe7 713c
000001b0: 8d32 7d3b f488 da3c 924c 0dbd 7ab8 02bd
000001c0: a026 d43b 2820 b93b a417 c1bc 220f a4bc
000001d0: 8246 1abd b824 3939 17f3 373d 9428 e4bc
000001e0: 5864 1e3c 8bb2 673a 45a8 dcbb d584 813c
000001f0: 5df8 f83c 6ec1 4cbc 156a 083d 3d07 24bd

running_var f4 [128]
0.04091938 0.02974464 0.024094222 0.034952264 0.036478072 0.0422513 0.052300476 0.055294063
0.049816053 0.033164863 0.031729516 0.026843896 0.08165323 0.03230956 0.042321548 0.03622165
0.036239695 0.053439178 0.022203863 0.02868196 0.04157803 0.04631422 0.04435501 0.03420041
0.04202538 0.05037728 0.028087012 0.057159036 0.03972452 0.03681778 0.08472376 0.054828245
0.038607 0.051767264 0.03489003 0.04167502 0.044160035 0.047144193 0.034212373 0.052154984
0.038359422 0.043468043 0.04209792 0.05443628 0.035434574 0.039061137 0.029246522 0.04964976
0.06883876 0.044245843 0.03738037 0.039533973 0.044577647 0.044554837 0.04672612 0.030386593
0.03558808 0.038352426 0.051231667 0.042661898 0.07381398 0.03973087 0.022605825 0.042784274
0.031930957 0.044506762 0.031136826 0.038135987 0.027326234 0.036928903 0.027642729 0.040860433
0.070105754 0.07859291 0.044318642 0.06936455 0.019227235 0.06264202 0.025851712 0.024787348
0.04617563 0.04447304 0.030213201 0.061357763 0.02371185 0.042769328 0.034511644 0.024246834
0.03215336 0.03920358 0.039764527 0.028544841 0.022740487 0.070775814 0.031985547 0.056881063
0.02568107 0.030104946 0.055668812 0.052331597 0.04106813 0.06932877 0.041947924 0.037786935
0.06908336 0.04971497 0.032606512 0.034711167 0.053029474 0.04237822 0.03313951 0.05002424
0.040790766 0.030469637 0.028576525 0.03458256 0.05848389 0.019622354 0.08587674 0.039681472
0.037070014 0.07448753 0.063972615 0.022336068 0.024264816 0.029020952 0.02908208 0.043748792
00000000: 149b 273d 08ab f33c 3f61 c53c 1b2a 0f3d
00000010: 086a 153d b30f 2d3d 0639 563d 077c 623d
00000020: eb0b 4c3d e1d7 073d cff6 013d bbe7 db3c
00000030: cf39 a73d 0757 043d 5c59 2d3d 275d 143d
00000040: 1370 143d 0ae3 5a3d e0e4 b53c 6ef6 ea3c
00000050: b94d 2a3d fbb3 3d3d 99ad 353d bb15 0c3d
00000060: ce22 2c3d 6858 4e3d bc16 e63c 981f 6a3d
00000070: 2eb6 223d 3ece 163d a783 ad3d 9593 603d
00000080: 6022 1e3d e909 543d d9e8 0e3d 6db3 2a3d
00000090: 27e1 343d 451a 413d 4622 0c3d 77a0 553d
000000a0: c51e 1d3d 8c0b 323d de6e 2c3d 94f8 5e3d
000000b0: d823 113d 92fe 1f3d 6796 ef3c 8c5d 4b3d
000000c0: 56fb 8c3d 213b 353d 291c 193d 60ee 213d
000000d0: 0d97 363d 227f 363d e363 3f3d 4eed f83c
000000e0: cec4 113d 6f17 1d3d 4cd8 513d 3ebe 2e3d
000000f0: c92b 973d d6bc 223d da2f b93c 903e 2f3d
00000100: 09ca 023d b94c 363d a812 ff3c 7b34 1c3d
00000110: 44db df3c c342 173d 0173 e23c 455d 273d
00000120: 9b93 8f3d 52f5 a03d 7787 353d 000f 8e3d
00000130: 6f82 9d3c 764a 803d f8c6 d33c d60e cb3c
00000140: a822 3d3d 5d29 363d ad81 f73c 4752 7b3d
00000150: 5b3f c23c e42e 2f3d 155c 0d3d 4ca1 c63c
00000160: 3eb3 033d ef93 203d 21e0 223d dfd6 e93c
00000170: 424a ba3c e9f2 903d 4703 033d 1efc 683d
00000180: 1b61 d23c a69e f63c fb04 643d a859 563d
00000190: 0e37 283d 3efc 8d3d 96d1 2b3d 79c6 1a3d
000001a0: 947b 8d3d eda1 4b3d 688e 053d 4c2d 0e3d
000001b0: 6f35 593d c994 2d3d 4bbd 073d 38e6 4c3d
000001c0: 3814 273d 769b f93c 5119 ea3c 71a6 0d3d
000001d0: ce8c 6f3d 0fbf a03c 25e0 af3d 0a89 223d
000001e0: bad6 173d eb8c 983d 1304 833d 21fa b63c
000001f0: 02c7 c63c 59bd ed3c 8b3d ee3c ef31 333d

weight f4 [64, 128]
-0.039701786 -0.0007618851 -0.030854456 -0.02324804 -0.04157843 0.014813467 -0.022843761 0.007326512
0.010772651 0.014240253 -0.007069964 0.026459906 0.0071848505 0.007012487 0.001597218 0.004135204
-0.009990716 0.010994941 -0.006335454 0.007660079 0.02266828 -0.0440557 -0.024742419 0.029163573
0.008133571 0.016863741 -0.0028343655 0.0052592247 0.037763096 -0.015608401 0.02850277 -0.012227958
0.015152687 0.00473568 -0.014342991 0.006924853 0.020609954 0.004818086 0.025940428 -0.014073691
-0.018707724 -0.013336845 0.010371148 -0.007416281 -0.017884014 0.0049259146 -0.018412143 -0.0030028853
0.005010624 0.037176758 0.031116128 0.022415442 0.013326847 0.0132541265 0.0005338741 0.0142718
-0.027000688 -0.038726747 -0.010682879 0.0015131467 -0.0013763554 0.020690188 -0.005725036 -0.023857774
-0.023070255 -0.023993844 -0.009923098 0.0092734005 -0.01289728 0.00040833233 0.0017539097 0.017311387
-0.008664697 0.035249475 0.031360514 -0.011968741 -0.014213329 0.016831156 0.0046512308 -0.0049528955
0.0038048737 0.023060853 -0.017651277 -0.01825928 -0.013514408 0.027930027 0.0168018 -0.018759822
0.013808507 0.019310065 -0.0013226225 -0.016042382 -0.037171952 0.016675418 0.012375408 -0.009823001
-0.018311433 0.017163925 0.017861992 -0.0074112574 0.01361373 0.012924096 0.0010253781 -0.009116828
0.023824032 0.027728803 0.030343244 -0.017363653 -0.022860503 -0.0333939 -0.011686214 -0.004879768
-0.009675882 0.0072913994 0.018767886 -0.0024891868 0.002450213 -0.023129446 0.03032611 0.0060519646
-0.031007733 -0.004035963 0.012769685 -0.03466576 -0.0041216235 0.003751766 -0.035596237 -0.0031146004
0.023009315 -0.011912764 0.0021430552 -0.007075517 0.0033872821 -0.021469451 -0.011825383 0.004068655
0.023591843 -0.0037759652 0.018503834 0.043028247 -0.018552544 0.0094654495 0.0029867725 -0.00893984
0.0097621735 -0.020025074 -0.011965569 0.02606494 0.011927184 -0.023302337 -0.006825842 0.017886883
0.0132029075 0.021157887 -0.008370297 0.0015646309 0.0021189349 -0.005809099 0.03471908 0.019375727
0.016012978 0.02008309 0.005045731 0.00081201777 -0.029004024 -0.014180425 -0.031259082 -0.014891724
0.016564945 0.009265173 -0.0033140373 -0.015527026 0.023861 0.02572365 0.02105559 0.046702508
-0.022347191 0.00039247592 -0.009875737 0.00497755 -0.026144596 0.016884493 0.0053220973 0.014747538
-0.023235051 -0.015367684 0.010294702 -0.00096389937 0.026635446 -0.020868458 0.02077132 -0.031624127
-0.015787166 -0.01740411 0.023248214 0.025052525 0.01195789 -0.0036680554 -0.014375511 0.046426047
-0.008822304 0.014092806 -0.005551951 0.02314998 0.019830083 0.030198634 0.016649416 0.004517553
0.015642375 0.0018554354 0.005484634 -0.027258014 -0.004308093 0.014727171 -0.035752203 -0.020280547
-0.015303414 0.0067760823 -0.007384612 -0.009882454 -0.016692791 -0.0071373926 -0.003632406 0.017494863
-0.021041311 0.022098217 0.02502615 0.03201604 -0.039436128 -0.022211207 0.002877737 -0.027577668
-0.021580415 0.013853938 0.012168227 -0.03336991 0.023538044 -0.018292448 0.017776994 -0.011685717
-0.014027884 -0.033369984 -0.0058255414 -0.039218992 0.004235218 -0.006586464 -0.003326985 0.00076728716
0.0107831 -0.03311476 0.015149329 -0.031115703 0.01436673 0.023082431 0.0027260645 0.0075802533
00000000: 579e 22bd 3eb9 47ba 7cc2 fcbc ac72 bebc
00000010: 254e 2abd 2fb4 723c d722 bbbc 3d13 f03b
00000020: c67f 303c f34f 693c 28ab e7bb 72c2 d83c
00000030: e56e eb3b 01c9 e53b be59 d13a 9b80 873b
00000040: 1ab0 23bc 2024 343c a499 cfbb 6601 fb3b
00000050: d4b2 b93c c073 34bd 9db0 cabc 72e8 ee3c
00000060: ab42 053c d425 8a3c c3c0 39bb 9355 ac3b
00000070: 7aad 1a3d 61ba 7fbc a47e e93c c657 48bc
00000080: fa42 783c c32d 9b3b ddfe 6abc e1e9 e23b
00000090: 35d6 a83c 09e1 9d3b 0581 d43c 5795 66bc
000000a0: f140 99bc c882 5abc bfeb 293c 4604 f3bb
000000b0: 7f81 92bc 9169 a13b 10d5 96bc 0ecc 44bb
000000c0: 2930 a43b a846 183d 40e7 fe3c 97a0 b73c
000000d0: d958 5a3c d627 593c aff3 0b3a 45d4 693c
000000e0: 8c30 ddbc f09f 1ebd 3e07 2fbc c754 c63a
000000f0: d366 b4ba 787e a93c 1599 bbbb 6171 c3bc
00000100: d5fd bcbc bd8e c4bc 7d94 22bc 76ef 173c
00000110: 1d4f 53bc 7015 d639 72e3 e53a 9cd0 8d3c
00000120: 60f6 0dbc c161 103d e273 003d 8a18 44bc
00000130: 06df 68bc 7ee1 893c 5a69 983b e64b a2bb
00000140: 305b 793b 1dea bc3c 6999 90bc 7c94 95bc
00000150: 896b 5dbc 83cd e43c eea3 893c 33ae 99bc
00000160: 133d 623c 2430 9e3c d95b adba 506b 83bc
00000170: 9e41 18bd e39a 883c 39c2 4a3c a7f0 20bc
00000180: dc01 96bc 5c9b 8c3c 5053 923c 22da f2bb
00000190: 1f0c 5f3c 96bf 533c fb65 863a c05e 15bc
000001a0: 9e2a c33c 8427 e33c 6592 f83c 383e 8ebc
000001b0: f345 bbbc 0bc8 08bd 8977 3fbc 76e6 9fbb
000001c0: 9787 1ebc b1ec ee3b 1cbf 993c a021 23bb
000001d0: c193 203b f779 bdbc 766e f83c 8f4f c63b
000001e0: ee03 febc 1d40 84bb f137 513c affd 0dbd
000001f0: af0e 87bb 30e0 753b 5ccd 11bd 531e 4cbb
00000200: 087e bc3c c12d 43bc 8072 0c3b bdd9 e7bb
00000210: 2afd 5d3b b4e0 afbc 40bf 41bc 5a52 853b
00000220: ae43 c13c 2f76 77bb 5a95 973c 633e 303d
00000230: 81fb 97bc f914 1b3c babd 433b 6878 12bc
00000240: 86f1 1f3c a00b a4bc 3c0b 44bc 2486 d53c
00000250: 3c6a 433c 8be4 bebc 50ab dfbb 8387 923c
00000260: 0251 583c 4e53 ad3c 9223 09bc 4d14 cd3a
00000270: d4dd 0a3b 415a bebb 9835 0e3d d8b9 9e3c
00000280: a62d 833c 4b85 a43c a956 a53b 97dd 543a
00000290: d999 edbc 0355 68bc 8609 00bd 6bfc 73bc
000002a0: 35b3 873c f4cc 173c 5230 59bb 1165 7ebc
000002b0: 2578 c33c 67ba d23c c67c ac3c 214b 3f3d
000002c0: 7511 b7bc 3ac5 cd39 d8cd 21bc b71a a33b
000002d0: 312d d6bc 5951 8a3c fd64 ae3b a89f 713c
000002e0: 6f57 bebc bdc8 7bbc 1cab 283c 31ae 7cba
000002f0: 9432 da3c 54f4 aabc 9e28 aa3c 4d88 01bd
00000300: 1654 81bc 1093 8ebc 0a73 be3c f43a cd3c
00000310: 07eb 433c c263 70bb 4387 6bbc 3d29 3e3d
00000320: 6d8b 10bc 83e5 663c 24ed b5bb 07a5 bd3c
00000330: b372 a23c 2063 f73c 5b64 883c fb07 943b
00000340: 7024 803c 1532 f33a 72b8 b33b 334c dfbc
00000350: e72a 8dbb 3b4a 713c e770 12bd 6423 a6bc
00000360: 2cbb 7abc e609 de3b 9efa f1bb 04ea 21bc
00000370: 52bf 88bc cae0 e9bb a90d 6ebb 6351 8f3c
00000380: d45e acbc 5207 b53c a403 cd3c 4023 033d
00000390: c787 21bd 47f4 b5bc 6a98 3c3b 90ea e1bc
000003a0: 69c9 b0bc a1fb 623c 3e5d 473c e3ae 08bd
000003b0: dbd2 c03c 0bda 95bc 0fa1 913c 7375 3fbc
000003c0: 36d5 65bc f7ae 08bd 2fe4 bebb 18a4 20bd
000003d0: 95c7 8a3b 44d3 d7bb 8c09 5abb c523 493a
000003e0: 99ab 303c 58a3 07bd e434 783c 5ce6 febc
000003f0: 6f62 6b3c 5e17 bd3c c6a7 323b c663 f83b

bias f4 [64]
0.022186704 0.014097016 0.014946347 0.0021606474 0.013731054 -0.03142788 0.00263934 0.011883746
0.022661522 0.0025987993 0.0057797176 -0.01389749 0.009679821 0.024490112 0.029910086 -0.015374134
0.011934109 0.007988999 -0.015451781 -0.015545031 -0.0023440956 -0.01707133 0.013320218 -0.022583364
0.022576394 -0.018531797 0.0108686015 -0.031117363 -0.023134993 -8.469245e-05 -0.00814882 0.030115157
0.0043852935 0.008299946 0.006657959 0.0116299605 0.011757651 0.019889614 0.0044367784 0.031065304
-0.017845728 0.025975041 -0.023743393 -0.024921414 -0.018818121 -0.005962674 0.026256109 -0.022946598
-0.026829084 0.00050630094 -0.008315008 0.03084146 0.0212694 -0.015306783 0.007385336 -0.020256277
0.012040794 0.003827518 -0.011700811 0.010055486 0.014710249 0.016880028 -0.00086836965 -0.031422768
00000000: e4c0 b53c 2cf7 663c 86e1 743c a699 0d3b
00000010: 37f8 603c 85ba 00bd c7f8 2c3b 0bb4 423c
00000020: a8a4 b93c 9e50 2a3b c963 bd3b 4cb2 63bc
00000030: 1d98 1e3c 7d9f c83c ff05 f53c cbe3 7bbc
00000040: 4887 433c 4ae4 023c 7829 7dbc 96b0 7ebc
00000050: 669f 19bb 2dd9 8bbc 0b3d 5a3c bf00 b9bc
00000060: 21f2 b83c ffcf 97bc 3812 323c d7e9 febc
00000070: 9985 bdbc ea9c b1b8 a182 05bc 10b4 f63c
00000080: 82b2 8f3b 7ffc 073c 022b da3b 978b 3e3c
00000090: 2aa3 403c 8bef a23c 6562 913b aa7c fe3c
000000a0: 3431 92bc 9cc9 d43c 8181 c2bc fe27 ccbc
000000b0: 7628 9abc 8962 c3bb 0d17 d73c 81fa bbbc
000000c0: abc8 dbbc 48b9 043a ac3b 08bc 3ba7 fc3c
000000d0: 2a3d ae3c 4dc9 7abc b000 f23b 7ef0 a5bc
000000e0: c046 453c 19d7 7a3b c2b4 3fbc c4bf 243c
000000f0: 4203 713c fc47 8a3c 4da3 63ba 29b5 00bd

weight f4 [64]
0.36653757 0.35584146 0.3673393 0.3587765 0.37185457 0.3548076 0.3583198 0.36020643
0.36615723 0.36223277 0.3535601 0.35535696 0.36269507 0.3474784 0.36564317 0.37135628
0.35351115 0.35208562 0.3551788 0.36098707 0.36504108 0.35428062 0.35479224 0.3540439
0.35004246 0.35769793 0.35498345 0.36021775 0.35797533 0.3686722 0.3581908 0.37378213
0.3590271 0.3614272 0.3547894 0.3532338 0.35785642 0.37568587 0.35729885 0.3634531
0.36726618 0.3662492 0.36300403 0.36125505 0.3525241 0.35791454 0.35940173 0.35831046
0.36446097 0.35853824 0.35371277 0.35918197 0.35720137 0.3581902 0.37099603 0.35253412
0.35619822 0.35399103 0.36839885 0.3607477 0.35716644 0.36042818 0.35883132 0.3616347
00000000: d0aa bb3e da30 b63e e613 bc3e 8eb1 b73e
00000010: b963 be3e 57a9 b53e b175 b73e fa6c b83e
00000020: f678 bb3e 9376 b93e d405 b53e 59f1 b53e
00000030: 2bb3 b93e b0e8 b13e 9535 bb3e 6922 be3e
00000040: 6aff b43e 9144 b43e ffd9 b53e 4cd3 b83e
00000050: aae6 ba3e 4564 b53e 54a7 b53e 3e45 b53e
00000060: c438 b33e 2f24 b73e 64c0 b53e 766e b83e
00000070: 8b48 b73e 9ac2 bc3e c964 b73e 5f60 bf3e
00000080: 66d2 b73e fc0c b93e f5a6 b53e 10db b43e
00000090: f538 b73e e659 c03e e0ef b63e 8616 ba3e
000000a0: 500a bc3e 0485 bb3e aadb b93e 6cf6 b83e
000000b0: 0a7e b43e 9340 b73e 8103 b83e 7874 b73e
000000c0: a19a ba3e 5392 b73e d719 b53e b3e6 b73e
000000d0: 19e3 b63e b564 b73e 31f3 bd3e 5a7f b43e
000000e0: 9d5f b63e 503e b53e c69e bc3e ecb3 b83e
000000f0: 85de b63e 0b8a b83e bdb8 b73e 2f28 b93e

bias f4 [64]
-0.041516054 -0.013931737 -0.023950083 -0.021755138 -0.030156044 -0.023480559 -0.009197889 -0.00070282514
-0.008010778 -0.0275787 -0.00926757 -0.006982287 -0.012252837 -0.006926309 -0.0065609557 -0.025009885
-0.007501523 -0.011281161 -0.01893021 -0.013146084 -0.0088780485 -0.024264062 -0.005025439 -0.0037793638
-0.016564248 -0.004213294 -0.015047931 -0.009644944 -0.026262332 -0.0072573875 -0.032448057 -0.042225465
-0.0011149154 -0.014900331 -0.0077066734 -0.011325522 -0.08278216 -0.02809423 -0.03353086 -0.0129325045
-0.008446853 -0.014681974 -0.025610682 -0.02584819 -0.010858212 -0.005905659 -0.017818114 -0.012805045
-0.020321297 -0.0021817654 -0.0077698897 -0.031874523 -0.025042506 -0.0192868 -0.06617727 -0.0076630292
-0.017497316 -0.005181792 -0.0314149 -0.009733691 -0.016388103 -0.01104699 -0.015442161 -0.0071137436
00000000: bd0c 2abd f141 64bc f732 c4bc d537 b2bc
00000010: cf09 f7bc 4d5a c0bc beb2 16bc cc3d 38ba
00000020: a33f 03bc baec e1bc 02d7 17bc abcb e4bb
00000030: 20c0 48bc 17f6 e2bb 49fd d6bb 88e1 ccbc
00000040: 56cf f5bb 9ed4 38bc 8713 9bbc ac62 57bc
00000050: 3c75 11bc 6dc5 c6bc 70ac a4bb 34af 77bb
00000060: bfb1 87bc ac0f 8abb 998b 76bc d405 1ebc
00000070: 1a24 d7bc 61cf edbb 41e8 04bd 9cf4 2cbd
00000080: 5a22 92ba 8520 74bc 4388 fcbb af8e 39bc
00000090: b189 a9bd df25 e6bc a857 09bd dbe2 53bc
000000a0: ab64 0abc aa8c 70bc 7ecd d1bc 95bf d3bc
000000b0: a4e6 31bc 4284 c1bb 4bf7 91bc 40cc 51bc
000000c0: d978 a6bc f3fb 0ebb 8f9a febb dc8e 02bd
000000d0: f125 cdbc 5aff 9dbc f387 87bd 261a fbbb
000000e0: 8856 8fbc 06cc a9bb e9ac 00bd 0f7a 1fbc
000000f0: 5840 86bc 6ffe 34bc 1e01 7dbc 681a e9bb

running_mean f4 [64]
0.016863607 0.027063498 0.033414986 0.02704013 0.024626752 -0.058499735 -0.023903344 0.013194287
0.057622753 0.0082976185 -0.0055963416 0.04600396 0.010774114 0.004759878 0.00093055813 -0.0064757955
0.057971116 0.021367753 -0.013557491 -0.019542186 -0.026319044 -0.0076952227 0.039077595 -0.047152508
0.047922045 -0.065545164 -0.0002654511 -0.0532877 -0.022640176 0.056489207 -0.057310782 0.058896698
-0.06690024 0.014922599 -0.056733 0.028358653 0.0074273287 0.013043067 0.021633409 0.036122046
-0.019942492 -0.0041865725 -0.05780269 -0.04734592 0.013590303 0.03679257 -0.0010393171 -0.040335402
-0.023941671 -0.042809546 -0.028456753 0.006103362 0.007145211 0.015909536 0.021619083 -0.0029709854
0.05902172 0.002586517 -0.10449013 -0.026850635 -0.05279417 -0.04424254 0.00068478746 0.049604915
00000000: 8c25 8a3c 45b4 dd3c 27de 083d 4383 dd3c
00000010: 0bbe c93c 6b9d 6fbd f2d0 c3bc da2c 583c
00000020: d605 6c3d bcf2 073c 8461 b7bb a66e 3c3d
00000030: e985 303c c0f8 9b3b b3f0 733a e932 d4bb
00000040: 1f73 6d3d 6d0b af3c 3d20 5ebc ef16 a0bc
00000050: 099b d7bc 3528 fcbb d40f 203d fd22 41bd
00000060: e849 443d 8b3c 86bd 3e2c 8bb9 3444 5abd
00000070: e477 b9bc 3a61 673d b6be 6abd aa3d 713d
00000080: fe02 89bd eb7d 743c dd60 68bd 6850 e83c
00000090: f360 f33b 97b2 553c 8c38 b13c b6f4 133d
000000a0: 705e a3bc 842f 89bb 83c2 6cbd cced 41bd
000000b0: dda9 5e3c ceb3 163d b239 88ba bc36 25bd
000000c0: 5321 c4bc 1059 2fbd 231e e9bc b6fe c73b
000000d0: 6022 ea3b b754 823c 811a b13c ddb4 42bb
000000e0: c2c0 713d 8e82 293b ecfe d5bd ddf5 dbbc
000000f0: b33e 58bd aa37 35bd 4f83 333a 862e 4b3d

running_var f4 [64]
0.005880364 0.0020795856 0.0024733653 0.0028171376 0.006715543 0.0033221636 0.0027001642 0.0021033115
0.005121888 0.005096914 0.0018489051 0.0056849653 0.0077947597 0.0024298134 0.0022463524 0.0029483328
0.0029066964 0.0027221432 0.002352327 0.003500567 0.004886774 0.0022855725 0.0028047194 0.0038825641
0.003032511 0.0028848627 0.0022791289 0.0023457448 0.0031198645 0.003697965 0.0034924448 0.003710483
0.004553566 0.0029314037 0.0028010635 0.0040599564 0.004906448 0.0031884932 0.0021034235 0.0037317327
0.0028906222 0.0035144507 0.002691258 0.0052891634 0.003058073 0.0029295404 0.0020564166 0.003004891
0.0047878316 0.002113853 0.0035796135 0.004617427 0.005970041 0.0030908221 0.0059719067 0.0029708922
0.0024067906 0.0024016374 0.004152476 0.0020595803 0.0037217946 0.003193186 0.002302951 0.004425968
00000000: 12b0 c03b a849 083b 2f18 223b ba9f 383b
00000010: 0f0e dc3b a8b8 593b 3df5 303b b6d7 093b
00000020: 83d5 a73b 0304 a73b f656 f23a f248 ba3b
00000030: 2f6b ff3b 813d 1f3b 8a37 133b d138 413b
00000040: 467e 3e3b fc65 323b 8029 1a3b c569 653b
00000050: 3b21 a03b 8bc9 153b 62cf 373b 9e72 7e3b
00000060: 18bd 463b f70f 3d3b 705d 153b 11bb 193b
00000070: a476 4c3b 8f59 723b 80e1 643b 932b 733b
00000080: 1536 953b cb1c 403b 0c92 373b 6209 853b
00000090: 45c6 a03b 0af6 503b 97d9 093b 1690 743b
000000a0: 9870 3d3b b352 663b d15f 303b b850 ad3b
000000b0: f469 483b 88fd 3f3b f2c4 063b b5ed 443b
000000c0: 3ee3 9c3b 9288 0a3b f397 6a3b c94d 973b
000000d0: 55a0 c33b 648f 4a3b fcaf c33b 4db3 423b
000000e0: 3fbb 1d3b ca64 1d3b 7e11 883b 06fa 063b
000000f0: 5ae9 733b c544 513b 1bed 163b b607 913b

weight f4 [32, 64]
-0.050171576 -0.0018936617 -0.024229905 -0.012600746 -0.036673978 0.0106612295 -0.031134663 0.018668622
0.022804141 -0.023302095 0.019044207 -0.008195259 0.038271107 0.00804523 -0.012496289 0.013452375
-0.013898084 0.013582526 -0.015631717 0.014737739 0.015359405 -0.019931985 -0.012924173 0.009483584
0.0141795445 0.031934228 -0.00279481 -0.0023684034 0.022097457 -0.044712562 -0.007893293 0.009400704
-0.015665436 -0.012209083 -0.002265802 0.016024318 0.045280263 -0.004197877 0.039114177 -0.04163827
-0.024492357 -0.05513395 -0.030046193 0.0064853723 -0.014654044 0.036496416 -0.0152965635 -0.03878897
0.037427276 -0.0004791548 0.024726363 0.030768493 0.0023380385 0.005141083 0.04483021 -0.021803351
-0.028210364 0.0089460965 -0.012558848 -0.017679578 -0.015548496 0.0021424396 0.03096261 -0.05882751
-0.030242901 -0.028601225 0.053054124 -0.01242785 -0.020705998 -0.011919568 -0.013092062 -0.007126829
-0.05254667 0.014030414 0.008485478 -0.02153682 -0.04005686 0.0047913715 -0.0018056585 -0.040352162
-0.005394139 0.018573212 -0.013595415 -0.022359882 -0.049939584 0.042682596 0.028567791 -0.023736581
-0.010953784 0.012476953 0.0031454174 0.024866164 -0.030137965 -0.04401013 0.022757899 -0.055501148
-0.008184132 0.021457456 0.01343799 0.007522479 -0.027272837 0.014123991 -0.016393272 -0.0068415687
0.0061536715 0.021619538 0.03093071 -0.032923155 -0.031554107 -0.033094697 -0.008368734 -0.011359277
-0.034244917 0.014713549 0.043232296 0.01290567 -0.017324116 -0.020283518 -0.018661369 0.0026896251
-0.045633424 0.023815973 0.02464468 -0.025499001 -0.037065666 0.016930176 -0.0477185 -0.028575819
0.025489843 -0.019637527 0.022179741 -0.019297304 0.0009782548 -0.02914563 -0.014264205 0.038238443
0.031488568 -0.018146763 0.0055324235 0.029466035 -0.03791858 0.017471945 -0.0056730243 -0.016808322
0.019120341 -0.032609 -0.017518362 0.03126992 0.030847013 -0.019541856 -0.018206974 0.030248625
0.0037847173 0.025142392 -0.02980981 0.007223773 0.0025940519 0.007008298 0.04736151 0.01701681
0.03374959 0.021652648 0.017815815 -0.016846329 -0.030595424 -0.041986126 -0.033668194 -0.035822324
0.023554357 0.021950398 -0.023246827 -0.039624497 0.031859245 0.018472295 0.030435769 0.03687516
-0.02839818 -0.031815346 -0.02203075 -0.012701305 -0.042692862 0.041281678 -0.007078018 0.028476942
-0.020720342 -0.009094176 0.009836976 -0.013448095 0.0428059 -0.012091664 0.00038336974 -0.035378896
-0.020986022 -0.026050294 0.013725714 -0.013201558 0.003403193 -0.007866951 -0.02128586 0.035123438
-0.010038795 0.018444007 -0.013702938 0.02081784 0.020854907 0.008849538 0.036423773 -0.017847627
-0.018667568 -0.0013674677 0.005652727 -0.031983268 0.013397247 0.02882089 -0.034853175 -0.038825102
-0.023815963 -0.0030045272 -0.017194605 -0.0066318866 -0.018626183 -0.03421307 0.010618271 -0.011343657
-0.030444024 0.044449195 0.0007584844 0.035028003 -0.031726453 -0.059180282 -0.003000502 -0.06222406
-0.032317348 0.028153928 0.025685478 -0.039904136 0.016099006 -0.020233653 0.032464366 -0.037363015
-0.0414854 -0.037756108 -0.0005192897 -0.04851105 -0.015474594 -0.018662097 -0.033942405 0.013845704
-0.006893433 -0.038866423 0.013206329 -0.03636799 0.029035265 0.04897453 -0.036360852 -0.010491381
00000000: b680 4dbd be34 f8ba cb7d c6bc 5c73 4ebc
00000010: 7437 16bd 70ac 2e3c 1f0e ffbc f0ee 983c
00000020: c0cf ba3c 09e4 bebc 9902 9c3c 6845 06bc
00000030: 2ac2 1c3d 24d0 033c 3cbd 4cbc 5a67 5c3c
00000040: cab4 63bc 3e89 5e3c 160e 80bc 8f76 713c
00000050: 04a6 7b3c 6748 a3bc e9bf 53bc 0961 1b3c
00000060: 5251 683c 77cd 023d 2229 37bb 3737 1bbb
00000070: ba05 b53c 8524 37bd df52 01bc 6905 1a3c
00000080: cd54 80bc 9b08 48bc d97d 14bb 6e45 833c
00000090: cc77 393d 588e 89bb 3036 203d e48c 2abd
000000a0: 32a4 c8bc 23d4 61bd 6f23 f6bc 3f83 d43b
000000b0: 8417 70bc 447d 153d 709e 7abc 2fe1 1ebd
000000c0: 584d 193d 1237 fbb9 f18e ca3c 350e fc3c
000000d0: c739 193b 8876 a83b e29f 373d f19c b2bc
000000e0: 6c19 e7bc a692 123c a0c3 4dbc c3d4 90bc
000000f0: 1ebf 7ebc 2c68 0c3b 4da5 fd3c 1df5 70bd
00000100: f6bf f7bc 1e4d eabc 484f 593d 2e9e 4bbc
00000110: a09f a9bc 4b4a 43bc 1780 56bc 2d88 e9bb
00000120: 2d3b 57bd d2df 653c ad06 0b3c fc6d b0bc
00000130: a912 24bd f000 9d3b d8ab ecba 4f48 25bd
00000140: 51c1 b0bb d926 983c 4ebf 5ebc 122c b7bc
00000150: 738d 4cbd f2d3 2e3d 0007 ea3c 3873 c2bc
00000160: 8077 33bc 226c 4c3c 5923 4e3b 20b4 cb3c
00000170: e5e3 f6bc f743 34bd c66e ba3c 2c55 63bd
00000180: bd16 06bc 8cc7 af3c 042b 5c3c 217f f63b
00000190: 496b dfbc 5068 673c 2f4b 86bc 3d2f e0bb
000001a0: bda4 c93b 751b b13c 6662 fd3c 6eda 06bd
000001b0: e13e 01bd 4e8e 07bd 041d 09bc 431c 3abc
000001c0: 6644 0cbd 1911 713c 5914 313d 4e72 533c
000001d0: 4eeb 8dbc 9f29 a6bc badf 98bc 6c44 303b
000001e0: 1dea 3abd b719 c33c a4e3 c93c 48e3 d0bc
000001f0: 2bd2 17bd 27b1 8a3c 7974 43bd d617 eabc
00000200: 13d0 d03c e1de a0bc 4ab2 b53c 6115 9ebc
00000210: c938 803a d1c2 eebc 69b4 69bc ea9f 1c3d
00000220: 28fa 003d 85a8 94bc 5549 b53b c162 f13c
00000230: 8350 1bbd 5321 8f3c c7e4 b9bb 9bb1 89bc
00000240: 43a2 9c3c 0491 05bd ab82 8fbc e314 003d
00000250: e0b2 fc3c 3e16 a0bc cb26 95bc f7cb f73c
00000260: 0509 783b 6bf7 cd3c b433 f4bc 66b5 ec3b
00000270: f800 2a3b dda5 e53b 25fe 413d d666 8b3c
00000280: 033d 0a3d e560 b13c 79f2 913c 5001 8abc
00000290: 41a3 fabc a5f9 2bbd a9e7 09bd 6eba 12bd
000002a0: 11f5 c03c 52d1 b33c 2170 bebc 4c4d 22bd
000002b0: d77e 023d 3653 973c 6f54 f93c 680a 173d
000002c0: 4da3 e8bc cf50 02bd d579 b4bc 2219 50bc
000002d0: b6de 2ebd fa16 293d b8ee e7bb 7a48 e93c
000002e0: b5bd a9bc bdff 14bc 452b 213c 6655 5cbc
000002f0: 3d55 2f3d 1d1c 46bc 04ff c839 76e9 10bd
00000300: e1ea abbc 6d67 d5bc d1e1 603c 594b 58bc
00000310: 1b08 5f3b 62e4 00bc af5f aebc 98dd 0f3d
00000320: c279 24bc e317 973c 4a82 60bc 2d8a aa3c
00000330: e9d7 aa3c a7fd 103c 1831 153d 3035 92bc
00000340: baec 98bc 9a3c b3ba 833a b93b e300 03bd
00000350: 2080 5b3c c919 ec3c 34c2 0ebd 1207 1fbd
00000360: b219 c3bc 9ae7 44bb b3db 8cbc 4c50 d9bb
00000370: f095 98bc 0123 0cbd 42f8 2d3c bfda 39bc
00000380: bf65 f9bc 5c10 363d 07d5 463a 8679 0f3d
00000390: 99f3 01bd 0667 72bd 12a4 44bb a8de 7ebd
000003a0: 325f 04bd 11a3 e63c 5a6a d23c 8572 23bd
000003b0: 10e2 833c 0cc1 a5bc 5bf9 043d f609 19bd
000003c0: 98ec 29bd 26a6 1abd f120 08ba 86b3 46bd
000003d0: 2789 7dbc 41e1 98bc 3107 0bbd 17d9 623c
000003e0: 4fe2 e1bb 6632 1fbd 5c5f 583c 9af6 14bd
000003f0: 5ddb ed3c 8499 483d 1eef 14bd 0be4 2bbc

bias f4 [32]
0.026974725 0.0315726 0.02659039 0.023545083 -0.003812888 0.008017713 0.01113716 -0.008165015
-0.036354475 0.016452776 0.013352324 -0.0036871661 -0.042291205 0.038614552 0.0139314765 -0.022169063
0.04196039 -0.027578743 -0.0014490708 0.00732944 -0.009594215 -0.017396644 -0.021444062 0.025944637
-0.0013943963 0.008268748 0.038185764 -0.030976918 -0.0061836573 -0.032690406 -0.011240836 -0.025747582
00000000: 19fa dc3c 4552 013d 17d4 d93c 9ee1 c03c
00000010: a5e1 79bb ba5c 033c a278 363c 8ec6 05bc
00000020: 6ee8 14bd f9c7 863c b5c3 5a3c 62a4 71bb
00000030: 8b39 2dbd 4b2a 1e3d d940 643c e59b b5bc
00000040: a8de 2b3d d1ec e1bc bfee bdba cd2b f03b
00000050: 0e31 1dbc 6883 8ebc 75ab afbc d989 d43c
00000060: 2dc4 b6ba a579 073c ad68 1c3d 4ec3 fdbc
00000070: 47a0 cabb 60e6 05bd 7c2b 38bc 98ec d2bc

weight f4 [32]
0.35058743 0.35575897 0.34418455 0.3507617 0.34524485 0.34982005 0.34712175 0.3545126
0.35104418 0.35156003 0.35163757 0.34944466 0.34915912 0.3460626 0.3547063 0.35027876
0.34781387 0.34453297 0.35116813 0.34998617 0.35598537 0.34790176 0.34387526 0.34709024
0.35174948 0.34878683 0.3468286 0.35092703 0.3529659 0.34826273 0.3516843 0.34439614
00000000: 3280 b33e 0a26 b63e f538 b03e 0a97 b33e
00000010: efc3 b03e 9d1b b33e f1b9 b13e ad82 b53e
00000020: 10bc b33e adff b33e d709 b43e 69ea b23e
00000030: fcc4 b23e 1e2f b13e 109c b53e bd57 b33e
00000040: a914 b23e a066 b03e 4fcc b33e 6331 b33e
00000050: b743 b63e 2e20 b23e 6b10 b03e d0b5 b13e
00000060: 8218 b43e 3094 b23e 8593 b13e b5ac b33e
00000070: f2b7 b43e 7e4f b23e f70f b43e b154 b03e

bias f4 [32]
-0.018175153 -0.00027189899 -0.010152074 -0.0023611612 -0.0077510225 -0.005507863 -0.00080424256 -0.024787115
-0.0015849847 -0.009025859 -0.009256451 -0.0056896857 0.002824004 0.0029221103 -0.012895428 0.0032987301
-0.010368519 -0.004438234 -0.01553419 0.0016145261 -0.018329194 0.0026923614 -0.013631582 -0.016122714
-0.006839127 -0.009457878 -0.012237129 -0.007204549 -0.01966058 -0.019004175 -0.018733475 -0.015102779
00000000: 0fe4 94bc aa8d 8eb9 e254 26bc b6bd 1abb
00000010: 4afc fdbb 4e7b b4bb ced3 52ba 590e cbbc
00000020: 43bf cfba 32e1 13bc 5fa8 17bc 8b70 babb
00000030: ed12 393b e080 3f3b 5847 53bc 822f 583b
00000040: b9e0 29bc 9b6e 91bb 1e83 7ebc 829e d33a
00000050: 1b27 96bc 5472 303b 0057 5fbc c813 84bc
00000060: c11a e0bb 37f5 1abc 3d7e 48bc 2314 ecbb
00000070: 3a0f a1bc a5ae 9bbc f276 99bc a571 77bc

running_mean f4 [32]
0.0070177163 -0.035178546 0.030250948 -0.042783327 0.020469453 -0.013325825 -0.013343223 -0.048394963
-0.10228539 0.0057495916 -0.085788645 -0.07446448 -0.11596407 0.031175353 -0.07604243 -0.056085344
0.027813934 -0.024211857 -0.017123317 -0.06699289 -0.09617676 -0.060748883 0.0021439637 0.052923433
-0.085659325 -0.0054577887 0.011336284 -0.032828797 -0.023540478 -0.054852474 -0.09721521 0.045699302
00000000: dff4 e53b 6117 10bd d6d0 f73c 923d 2fbd
00000010: 8eaf a73c 9054 5abc 899d 5abc cc39 46bd
00000020: 017b d1bd 1267 bc3b f5b1 afbd d580 98bd
00000030: 927e edbd 7463 ff3c 22bc 9bbd bfb9 65bd
00000040: 0cda e33c f257 c6bc 3346 8cbc 9133 89bd
00000050: 52f8 c4bd d2d3 78bd be81 0c3b 3ec6 583d
00000060: 286e afbd 40d7 b2bb d2bb 393c 7d77 06bd
00000070: f6d7 c0bc fdac 60bd c518 c7bd 312f 3b3d

running_var f4 [32]
0.0033694298 0.00651199 0.0031061082 0.005837033 0.0017540057 0.0036897173 0.0038925933 0.0040338933
0.0047540446 0.002755157 0.0049100756 0.0037846114 0.0046804636 0.004144252 0.0052907513 0.004401181
0.002954871 0.0032105122 0.003524532 0.005433396 0.0038535628 0.0039328746 0.0016072198 0.0022973127
0.005917673 0.002781259 0.001869028 0.00453948 0.0030111945 0.008353327 0.005279095 0.003047775
00000000: a7d1 5c3b 8862 d53b d98f 4b3b 9544 bf3b
00000010: aae6 e53a 2fcf 713b e11a 7f3b c02e 843b
00000020: d1c7 9b3b dd8f 343b b3e4 a03b 3e07 783b
00000030: 935e 993b 81cc 873b 0a5e ad3b c837 903b
00000040: 82a6 413b 7567 523b d6fb 663b a10a b23b
00000050: 0e8c 7c3b 58df 803b 59a9 d23a 838e 163b
00000060: 0ae9 c13b c845 363b 2cfa f43a ebbf 943b
00000070: 7657 453b 65dc 083c 42fc ac3b 2ebd 473b

weight f4 [1, 32]
-0.058160417 0.070083074 0.0227071 0.05536379 -0.028962055 -0.04181993 -0.04373947 0.066575
0.05997361 -0.030355228 0.06500946 0.02190333 0.04565622 0.03969521 0.0656681 0.052095007
0.018644014 0.013773323 -0.047395714 0.055292044 0.0677521 0.040254273 0.009732048 0.029823244
0.0688679 -0.020798536 0.00406013 -0.037917882 -0.05155875 -0.03264088 0.050995618 0.017965874
00000000: 9e39 6ebd b787 8f3d 3d04 ba3c 24c5 623d
00000010: d541 edbc 604b 2bbd 2928 33bd 7958 883d
00000020: e3a6 753d 87ab f8bc ae23 853d 9d6e b33c
00000030: 0402 3b3d 7297 223d ff7c 863d 9361 553d
00000040: 55bb 983c 81a9 613c 0222 42bd e979 623d
00000050: 9dc1 8a3d aae1 243d 2b73 1f3c e04f f43c
00000060: 9d0a 8d3d b161 aabc d70a 853b c84f 1bbd
00000070: 452f 53bd 72b2 05bd c8e0 503d 2b2d 933c
